lab6/attachment/model.pth (torch, 139474 bytes, 11 tensors)

feature_layer.0.weight f4 [128, 4]
0	0x3f428fa8	0.7600045
1	0x3f107dde	0.5644206
2	0x3dc0bb84	0.09410766
3	0xbe066f92	-0.13128498
4	0xbefff4d9	-0.4999149
5	0x3e38e5d6	0.18056425
6	0x3f74deb3	0.9565231
7	0xbe980725	-0.2969295
8	0x3fbaf2f1	1.460539
9	0x3e451d09	0.19249357
10	0x3ecf9489	0.4054301
11	0x3e027a26	0.12741908
12	0x3f8919f8	1.071105
13	0x3e458ea1	0.1929269
14	0xbf8cb4e9	-1.0992709
15	0xbe9675ee	-0.29386848
16	0x3f15d3ea	0.5852648
17	0x3f2539a1	0.6454106
18	0xbe7d6166	-0.24744186
19	0x3ed050f5	0.40686765
20	0x3eb386df	0.35063836
21	0x3e0ecf7b	0.13946335
22	0x3f956b0e	1.1673295
23	0x3e73189b	0.23739855
24	0x3d93da72	0.072193995
25	0x3e92980a	0.28631622
26	0xbf0f5c86	-0.56000555
27	0x3d816fe0	0.063201666
28	0x3ea20f2c	0.316522
29	0x3ea466d6	0.32109708
30	0xbdc94449	-0.098274775
31	0xbd57d32c	-0.052691624
32	0xbf0cdfce	-0.55029
33	0x3ef0df5a	0.47045404
34	0x3ef4ebdc	0.47836196
35	0x3e9056fd	0.28191367
36	0x3f52c015	0.82324344
37	0x3f1cd80c	0.6126716
38	0x3fc71915	1.555453
39	0x3eee88b0	0.4658866
40	0xbec2b323	-0.38027295
41	0x3eee0002	0.4648438
42	0x3f0a3883	0.5399248
43	0x3eec3d02	0.46140295
44	0x3f54c4f0	0.83113
45	0x3e9d92b9	0.30776003
46	0x3e12466d	0.14284678
47	0xbc25250f	-0.010079636
48	0x3e1ea3d3	0.15492181
49	0x3d09cd73	0.033643197
50	0xbdcdbf7a	-0.10046287
51	0xbe0f5f59	-0.14001216
52	0xbee3c658	-0.44487262
53	0xbefa50e4	-0.4888984
54	0xbf1ecf2b	-0.62034863
55	0xbea0874c	-0.31353223
56	0x3f7c812b	0.98634595
57	0x3f027369	0.5095735
58	0x3fc95628	1.5729418
59	0x3ec1ddb1	0.3786445
60	0x3bd2bf8f	0.006431527
61	0xbcdc5a31	-0.026898475
62	0x3eb5b7c0	0.35491753
63	0xbe64169a	-0.22274247
64	0x3fa9c353	1.3262733
65	0x3e10fbcc	0.14158553
66	0x3ebccde6	0.36875838
67	0xbe578b87	-0.21049319
68	0xbe10fe14	-0.14159423
69	0xbe1e6e86	-0.15471849
70	0xbfb53df0	-1.4159527
71	0xbe73234c	-0.23743933
72	0xbee6ec70	-0.45102262
73	0xbf145631	-0.5794402
74	0xbef1c85a	-0.4722317
75	0xbe6d0235	-0.23145373
76	0x3eac433b	0.33645043
77	0x3f08d281	0.53446203
78	0x3fb323f2	1.3995345
79	0x3ef76210	0.48317003
80	0xbeddaf2e	-0.43297714
81	0x3e209077	0.15680109
82	0x3eef2426	0.46707267
83	0x3ed78714	0.42095244
84	0x3f0ebf68	0.5576081
85	0x3e508c8a	0.20366111
86	0x3f5270c5	0.8220332
87	0x3ea6ab12	0.3255239
88	0x3eeb5d9d	0.4596986
89	0xbdbf659a	-0.09345551
90	0x3e3a2b26	0.18180522
91	0x3ed73b0f	0.42037246
92	0x3f7212d7	0.9456
93	0xbdbe438a	-0.09290226
94	0xbb6ef73a	-0.0036463276
95	0x3c7370da	0.014858449
96	0xbea2d162	-0.3180037
97	0x3e915b07	0.2838976
98	0x3f82b9bd	1.0212933
99	0x3eb915ad	0.3614935
100	0xbf6ee4f6	-0.93318117
101	0x3c345056	0.011005482
102	0xbf79d944	-0.97597146
103	0xbd7916aa	-0.06081263
104	0xbe92dbeb	-0.2868341
105	0x3e89b6d3	0.26897296
106	0xbedcfd1c	-0.43161857
107	0xbe11b1bb	-0.14227955
108	0x3f35a37b	0.70952576
109	0xbe8b74d1	-0.2723756
110	0x3f147514	0.5799115
111	0x3f0f60e8	0.5600724
112	0xbeb909ee	-0.36140388
113	0xbd297181	-0.04136801
114	0x3e6e146b	0.23249976
115	0x3e838a22	0.25691324
116	0xbe355f9f	-0.17712258
117	0xbdacdacd	-0.084401704
118	0x3f8c898f	1.097948
119	0x3eaf75ca	0.34269553
120	0x3e2fd66d	0.1717164
121	0xbf067447	-0.52521175
122	0xbd93b989	-0.072131224
123	0x3ea786d7	0.32720062
124	0x3ee4acc8	0.44663072
125	0xbecd61ed	-0.40113774
126	0xbf876ec9	-1.0580684
127	0xbdcdae0e	-0.10042964
128	0x3e320706	0.17385492
129	0xbe685e4f	-0.22692226
130	0xbf2f1f9f	-0.68407625
131	0x3eb10e35	0.34581152
132	0x3f86ff71	1.0546705
133	0x3e0e99da	0.13925877
134	0xbdeea291	-0.11652101
135	0x3cadf379	0.02123426
136	0xbedc1fba	-0.42992955
137	0xbf338fc9	-0.70141274
138	0xbf710f6f	-0.94164175
139	0xbf0b38fc	-0.54383826
140	0x3de53ef5	0.11193649
141	0x3e0abc48	0.13548386
142	0xbebb9d1e	-0.36643308
143	0x3db6ea21	0.08931375
144	0xbec64cf3	-0.38730583
145	0x3f143964	0.5790007
146	0xbdab24e2	-0.08356644
147	0xbe0ac1fb	-0.1355056
148	0xbf95d38f	-1.1705188
149	0x3b87f844	0.0041494686
150	0xbf1fbda8	-0.6239877
151	0xbd5106f2	-0.051032014
152	0x3ee00a5b	0.437579
153	0xbee128eb	-0.4397653
154	0xbf4d3f50	-0.8017473
155	0xbf121f45	-0.57078964
156	0xbed41377	-0.414211
157	0x3e1579f7	0.14597307
158	0xbf68c78a	-0.9092947
159	0x3dc7ddb6	0.09759085
160	0x3d452b7f	0.048137184
161	0x3e8477e1	0.2587271
162	0x3f70fa9f	0.9413242
163	0x3ea8f480	0.3299904
164	0x3d4cacf7	0.04996964
165	0x3d027446	0.03184917
166	0xbc7c85d1	-0.015412764
167	0xbf07456a	-0.5284029
168	0xbd653e56	-0.05596765
169	0x3e1e4c47	0.15458785
170	0x3f81ce15	1.0141016
171	0x3e234f0b	0.15948121
172	0xbea2d8c5	-0.31806007
173	0x3f49f6d3	0.7889225
174	0x3f084f7a	0.5324627
175	0x3f0c80e9	0.548842
176	0xbe0b5fe8	-0.13610804
177	0x3e2be7b2	0.16787603
178	0x3f1ff9af	0.6249036
179	0x3e7273ba	0.23676959
180	0x3f5de83d	0.8668249
181	0xbd431acb	-0.047632974
182	0x3f43fecc	0.76560664
183	0xbd9a5bff	-0.07537078
184	0xbe0fc2eb	-0.14039199
185	0xbf212ad7	-0.62955993
186	0xbfb0b7e0	-1.3806114
187	0xbf080c2f	-0.5314359
188	0x3eb8982c	0.36053598
189	0xbe14e15c	-0.14539093
190	0x3fb83b47	1.439309
191	0x3d8acf2a	0.06777795
192	0xbefdf467	-0.49600527
193	0xbe3c52ae	-0.18390915
194	0x3e003b6f	0.12522672
195	0x3e00f980	0.12595177
196	0xbe922431	-0.28543237
197	0xbd9433c6	-0.072364375
198	0x3f8439d1	1.0330144
199	0x3cb2fc4a	0.021848816
200	0xbf3bbee8	-0.73338175
201	0xbf1ea16f	-0.6196508
202	0x3e198373	0.1499155
203	0xbed39f74	-0.4133259
204	0xbde9878c	-0.11402807
205	0x3edf8641	0.43657115
206	0xbf9c75c8	-1.2223444
207	0xbee7625c	-0.4519223
208	0xbde6c2d0	-0.11267626
209	0xbeb76f75	-0.35827222
210	0xbf21566a	-0.6302248
211	0xbedcfa36	-0.43159646
212	0x3e966f7b	0.29381928
213	0xbeac19a0	-0.336133
214	0xbef5b482	-0.4798928
215	0x3ed6d97b	0.419628
216	0x3e7af312	0.24506786
217	0xbd59d53a	-0.053181864
218	0x3cde2e7e	0.027121779
219	0xbef2166a	-0.47282726
220	0xbea56482	-0.32303244
221	0x3ef4cb54	0.47811377
222	0x3e8e2095	0.27759233
223	0x3ee9a8ea	0.45636684
224	0xbde00598	-0.10938567
225	0x3eac6d5e	0.3367719
226	0x3f307dc5	0.6894191
227	0x3eba240c	0.36355627
228	0xbd15430f	-0.036440905
229	0x3ec869b6	0.3914315
230	0xbe7c92b9	-0.24665345
231	0xbe7e94fd	-0.24861522
232	0xbeff8f21	-0.49913886
233	0xbed8ff06	-0.42382067
234	0x3f38aef3	0.7214195
235	0x3f14ff87	0.58202404
236	0x3f26cf33	0.6515991
237	0xbec64f9a	-0.38732606
238	0xbf776655	-0.9664052
239	0xbebb19a6	-0.36543006
240	0x3e687bb5	0.2270344
241	0x3efa2e94	0.4886366
242	0xbf46e29c	-0.7768953
243	0x3e834db9	0.25645235
244	0xbf1ef73b	-0.62095994
245	0xbea64362	-0.32473284
246	0x3d719051	0.05897552
247	0xbdd28df0	-0.10280979
248	0xbdc1690a	-0.09443863
249	0xbec1928e	-0.37807125
250	0x3f5ce519	0.86287075
251	0xbd4fd3fd	-0.050739277
252	0xbb7ca5c3	-0.003855095
253	0xbe3d570a	-0.18490234
254	0xbf7e887b	-0.99427
255	0xbeb7cb16	-0.3589713

feature_layer.0.bias f4 [128]
0	0x3e8776ac	0.26457727
1	0x3ebc1439	0.3673418
2	0xbe5a95df	-0.21346234
3	0xbe0283d1	-0.12745596
4	0xbe03ea09	-0.12882246
5	0x3ef76127	0.4831631
6	0x3ed78ffc	0.4210204
7	0xbee918b8	-0.4552667
8	0x3ef3605d	0.47534457
9	0x3db9a97d	0.090655304
10	0xbe4892e6	-0.19587287
11	0x3edbca94	0.42927992
12	0x3f0c3274	0.54764485
13	0x3f124068	0.57129526
14	0xbe1ed905	-0.15512474
15	0x3ec292c8	0.3800261
16	0xbdba5d9c	-0.09099886
17	0xbe1d2264	-0.1534515
18	0x3e7b6d33	0.24553375
19	0xbe096f3b	-0.13421337
20	0xbc43267a	-0.011911029
21	0x3e813820	0.25238132
22	0x3ec9e5c7	0.3943312
23	0x3efbb4e8	0.49161458
24	0xbe5b0c79	-0.21391477
25	0xbe91201c	-0.2834481
26	0x3eb833c0	0.35976982
27	0xbe56684e	-0.20938227
28	0x3ecce777	0.40020344
29	0x3f079b12	0.52970994
30	0xbeef82a1	-0.4677935
31	0x3e468b81	0.19389154
32	0x3e9324b4	0.2873894
33	0xbe41bf0d	-0.18920536
34	0x3e5656dc	0.20931572
35	0xbee3327e	-0.4437446
36	0xbe8a155d	-0.26969424
37	0xbecb84f6	-0.3974988
38	0x3e01492d	0.1262557
39	0x3dcf72fd	0.10129354
40	0x3eee4911	0.4654012
41	0x3ed03538	0.40665603
42	0x3e9e6e43	0.30943498
43	0x3f04ac6e	0.51825607
44	0x3c8013d9	0.015634464
45	0x3f2492c2	0.64286435
46	0xbe41e2e8	-0.18934214
47	0xbc8f622e	-0.01750287
48	0xbee335b0	-0.44376898
49	0x3de11c2f	0.10991704
50	0x3f0b8030	0.54492474
51	0xbd2f684d	-0.04282408
52	0xbe9a2edb	-0.30113873
53	0xbd7ff961	-0.062493686
54	0xbe041e14	-0.12902099
55	0x3eb57900	0.35443878
56	0x3eb5b1a4	0.35487092
57	0xbea74f8f	-0.32677886
58	0xbec154b6	-0.37759942
59	0x3d337f74	0.04382272
60	0x3f6a684e	0.91565406
61	0x3e94c611	0.29057363
62	0x3ee1826b	0.44044814
63	0x3f0fde0f	0.5619821
64	0x3e79007e	0.24316594
65	0xbeeaba21	-0.4584513
66	0x3e12a0f9	0.14319219
67	0x3e6b2765	0.22964247
68	0x3f0e59ca	0.5560576
69	0x3beb35ce	0.007178045
70	0x3ea855b4	0.32877886
71	0x3eda7dd8	0.42674136
72	0xbe9096ff	-0.282402
73	0x3d3c325e	0.04594647
74	0xbe7ed9c3	-0.24887757
75	0xbdd27305	-0.102758445
76	0xbe8284a0	-0.2549181
77	0x3e01a29c	0.12659687
78	0xbe2ebe16	-0.170647
79	0x3debf38b	0.115210615
80	0xbde32486	-0.11090951
81	0x3f015403	0.50518817
82	0x3dcf88d1	0.101335175
83	0xbebde8ad	-0.3709158
84	0xbd10719a	-0.03526459
85	0x3f12fd71	0.5741797
86	0xbed75333	-0.42055663
87	0xbde3ee39	-0.11129422
88	0x3e41e08c	0.18933314
89	0x3e9ad6cd	0.30242005
90	0x3ec0ec3c	0.37680233
91	0xbe17badf	-0.1481738
92	0xbe8ed8cf	-0.27899787
93	0x3e2c8ffe	0.16851804
94	0xbdf2925e	-0.118443236
95	0x3ed4734d	0.41494218
96	0x3e816e49	0.25279453
97	0x3ed6debe	0.41966814
98	0xbe147ba0	-0.14500284
99	0xbdf14d24	-0.117822915
100	0x3f5e3657	0.86801666
101	0xbe509dd6	-0.2037271
102	0xbe95f6da	-0.29289895
103	0xbe92931c	-0.2862786
104	0xbdf7d92b	-0.121019684
105	0xbd33a0a9	-0.04385439
106	0xbf0cb432	-0.54962456
107	0xbec757e7	-0.38934252
108	0x3e522d70	0.20525146
109	0x3f138b31	0.57634264
110	0xbece9cbc	-0.40353954
111	0xbe83c637	-0.25737163
112	0xbeb6d7bf	-0.35711476
113	0xbe5c2388	-0.21497929
114	0x3ca92bee	0.02065083
115	0xbda99d82	-0.08281995
116	0x3f017e18	0.5058303
117	0x3f0761d7	0.52883667
118	0xbe0a56d6	-0.13509688
119	0x3f0200fc	0.5078275
120	0xbe12f7f1	-0.14352395
121	0x3f1188bc	0.56849265
122	0xbdea4524	-0.11438969
123	0xbe5e5abc	-0.217143
124	0xbe678727	-0.2261015
125	0xbbd39302	-0.0064567337
126	0x3e8a2dfc	0.26988208
127	0x3d2e5075	0.0425572

feature_layer.2.weight f4 [128, 128]
0	0x3d649b89	0.055812392
1	0xbcb051df	-0.021523414
2	0x3da0f202	0.07858659
3	0xbd54568b	-0.051840346
4	0xbda297ac	-0.07939085
5	0xbc1c67d3	-0.009546238
6	0xbd852ed0	-0.065030694
7	0xbd8cc115	-0.06872765
8	0x3cafc9d3	0.021458542
9	0x3cbd2557	0.023089094
10	0xbc662e63	-0.014049145
11	0xbd767515	-0.060170252
12	0xbd4d29ec	-0.050088808
13	0xbd85ff46	-0.0654283
14	0xbd96078d	-0.07325659
15	0x3d400c39	0.046886656
16	0x3d2b1a71	0.041773263
17	0xbd971d19	-0.07378597
18	0xbd27f04d	-0.041000653
19	0x3d0d52bd	0.034502733
20	0xbdac0e91	-0.08401216
21	0x3c6c4efb	0.014423127
22	0xbcd27f4f	-0.025695471
23	0xbd159270	-0.036516607
24	0x3d582f8d	0.052779723
25	0xbd032ecc	-0.03202705
26	0xbd98dbb3	-0.07463779
27	0x3da49f74	0.08038226
28	0x3c35d7db	0.011098827
29	0x3d786c61	0.060650233
30	0x3d31e419	0.04343042
31	0x3d8c3486	0.068459556
32	0xbd896d91	-0.06710351
33	0xbd8e652d	-0.069528915
34	0xbda0506d	-0.0782784
35	0xbd620d4e	-0.05518847
36	0x3d249195	0.0401779
37	0xbda16ca2	-0.07882048
38	0x3cdaf513	0.026728189
39	0x3d71fcd1	0.059078995
40	0xbd222023	-0.03958143
41	0xbcab35bb	-0.020899644
42	0xbd7e6609	-0.062109027
43	0xbd8d52b9	-0.06900544
44	0xbc998683	-0.018740898
45	0xbd62eb35	-0.055400092
46	0x3d9fc86e	0.07801901
47	0x3c026d23	0.0079605905
48	0xbc8dcde7	-0.017310096
49	0x3da6d534	0.08146134
50	0xbd14a61f	-0.036291238
51	0x3c89c397	0.016816897
52	0x3c811017	0.015754743
53	0xbc829993	-0.01594237
54	0xbda15ba1	-0.07878805
55	0x3cdb15c3	0.026743775
56	0x3d897114	0.06711021
57	0x3d8760f2	0.06610288
58	0x3c81c42b	0.01584061
59	0x3d2c6d61	0.0420965
60	0xbd49d253	-0.049272846
61	0x3d981f70	0.07427871
62	0xbd424a05	-0.04743387
63	0x3b133f63	0.0022468201
64	0xbdabe66f	-0.08393561
65	0xbd400f00	-0.046889305
66	0xbd8d2400	-0.06891632
67	0xbd0143b0	-0.031558692
68	0xbd32e485	-0.043674964
69	0x3d8ec0aa	0.069703415
70	0xbdada9bd	-0.08479641
71	0xbc1355eb	-0.008992652
72	0x3d9a9e72	0.07549752
73	0xbd85a4b5	-0.06525556
74	0x36679983	3.4511038e-06
75	0xbd13877a	-0.036017872
76	0x3a4c5383	0.00077944266
77	0xbd8cba04	-0.06871417
78	0x3be4eb93	0.0069860904
79	0xbcb306bb	-0.021853795
80	0xbd9f5289	-0.07779414
81	0x3d6add15	0.057339747
82	0x3ceb681f	0.028736172
83	0x3d84179e	0.06449817
84	0xbdaf8d75	-0.08571903
85	0x3d9cdc3e	0.07659195
86	0x3cf66b2f	0.030080406
87	0xbab52803	-0.0013821129
88	0xbd38e5de	-0.045141093
89	0xbd0398e8	-0.032128245
90	0xbd5a7c96	-0.05334147
91	0x3c7a6c9b	0.015284683
92	0xba26b703	-0.00063596683
93	0x3cdb178f	0.026744632
94	0x3d478889	0.048714194
95	0x3ccb472f	0.024814216
96	0xbdad6581	-0.08466626
97	0xbd89ebc1	-0.067344196
98	0x3c211213	0.009830969
99	0xbd8522b0	-0.06500757
100	0x3cee19f3	0.029065108
101	0x3cff444f	0.031160502
102	0x3d87e39c	0.0663521
103	0x3d42eecd	0.04759102
104	0x3d72574d	0.059165288
105	0x3ce889a7	0.02838595
106	0xbd144345	-0.036196966
107	0x3cb51edf	0.022109447
108	0x3c3fc9cb	0.011705826
109	0xbd0735cd	-0.033010293
110	0x3d067b89	0.032832656
111	0x3d978e1e	0.074001536
112	0x3d31d975	0.043420274
113	0xbd833fb2	-0.06408633
114	0xbd1dab4a	-0.038493432
115	0xbce33a77	-0.02773784
116	0xbda13ee7	-0.07873326
117	0x3c97eb4f	0.018544821
118	0xbce49751	-0.027904185
119	0xbd77ce48	-0.06049946
120	0x3d2c689d	0.042091954
121	0xbd1c6785	-0.03818466
122	0xbd437e41	-0.047727827
123	0x3d451585	0.048116226
124	0xbce062e1	-0.0273909
125	0xbd8cf122	-0.0688193
126	0x3d380651	0.0449279
127	0xbd9e1444	-0.07718709
128	0x3d9fe3ec	0.078071445
129	0xbda20439	-0.07910962
130	0xbdaaf7c1	-0.083480366
131	0xbd23c25c	-0.039980277
132	0xbc57bdc2	-0.0131678
133	0x3c786d20	0.015162736
134	0x3d52406c	0.05133097
135	0xbd067f9b	-0.032836538
136	0xbdb35e73	-0.08758249
137	0xba402b1d	-0.0007330643
138	0x3b93961a	0.0045039775
139	0x3ccab70f	0.024745492
140	0x3d7d44b5	0.061833102
141	0xbce1c25b	-0.027558496
142	0xbd7ec271	-0.062197153
143	0xbdada41c	-0.08478567
144	0xbd6cf0b6	-0.057846747
145	0xbd53052c	-0.051518604
146	0xbdb30b9d	-0.087424494
147	0xbc703ce2	-0.014662953
148	0x3d1d80fc	0.038453087
149	0xbdbbc1fe	-0.091678604
150	0xbdb91208	-0.09036642
151	0x3d04ed5b	0.032452922
152	0xbd97b8d9	-0.07408304
153	0xbdb9c480	-0.090706825
154	0x3c3c88d2	0.01150723
155	0x3c5569fa	0.013025755
156	0x3c5a248b	0.013314377
157	0xbd139eb7	-0.036040034
158	0xbcabeb63	-0.020986265
159	0x3d4445a0	0.047917962
160	0x3d1e1e38	0.038603038
161	0xbdb01b5f	-0.085989706
162	0xbcaf7ac2	-0.02142084
163	0xbca84ed3	-0.020545399
164	0xbdaa09f9	-0.083026834
165	0xbdb0a296	-0.08624761
166	0xbc7f394e	-0.015577627
167	0xbdb1807c	-0.086670846
168	0xbd06f42e	-0.03294771
169	0xbd9bdb5d	-0.076101996
170	0xbd80de5e	-0.06292413
171	0xbcda3846	-0.026638161
172	0x3d9012bd	0.07034824
173	0x3d8790cc	0.06619415
174	0xbca2b860	-0.019863307
175	0x3c36a032	0.011146592
176	0x3bc2a543	0.005940111
177	0xbc192565	-0.009347294
178	0x3d333ded	0.04376023
179	0xbd275825	-0.040855546
180	0xbc23f115	-0.010006209
181	0xbd12954b	-0.035786908
182	0xbd9d9808	-0.07695013
183	0x39f65473	0.00046983696
184	0x3cc32198	0.02381973
185	0x3d57dc5e	0.052700393
186	0xbd79247d	-0.060825814
187	0xbd2c5b57	-0.042079296
188	0x3d71f369	0.059070025
189	0x3bdaa3b5	0.0066723474
190	0xbdaed68a	-0.08537014
191	0xbd20dcc2	-0.03927303
192	0xbc8a1fa9	-0.0168608
193	0xbdaa28a0	-0.0830853
194	0xbc6cddfe	-0.014457224
195	0xb9b6fa60	-0.0003490029
196	0x3ccb77f7	0.024837477
197	0x3d114761	0.035468463
198	0x3c99cd49	0.018774645
199	0xbd769e65	-0.06020965
200	0x3d6acd48	0.057324678
201	0x3cbe82ee	0.023255792
202	0xbd885b46	-0.06658034
203	0x3d7c679c	0.061622247
204	0x3d422955	0.0474027
205	0xbcbb939e	-0.022897538
206	0xbd050087	-0.032471206
207	0x3d14d75e	0.036338203
208	0x3b26f651	0.0025476406
209	0xbd8872a5	-0.06662492
210	0x3d130dd3	0.035901856
211	0xbd5e0af7	-0.054209676
212	0x3d1e5143	0.038651716
213	0xbdbbeb40	-0.0917573
214	0xbd4716b8	-0.04860565
215	0xbcea06b6	-0.028567653
216	0xbdadd661	-0.08488155
217	0x3c8efb4b	0.01745381
218	0x3d5508fb	0.052010518
219	0xbdc15796	-0.09440534
220	0xbd2688da	-0.040657856
221	0xbda3422b	-0.07971605
222	0xbd1b5527	-0.037923004
223	0xbd8137f6	-0.06309502
224	0x3cae35f8	0.021265969
225	0x3b2cac97	0.0026347989
226	0xbd4559f7	-0.0481815
227	0x3ce05924	0.027386256
228	0x3cd98e04	0.026556976
229	0xbcd6bfbc	-0.026214473
230	0xbdbdaa75	-0.09261028
231	0x3dc766f1	0.097364314
232	0x3d91bd4e	0.07116185
233	0xbd9193bb	-0.071082555
234	0xbd830179	-0.06396765
235	0xbd7331ab	-0.05937354
236	0x3d784b2f	0.060618576
237	0xbdbf3e7c	-0.0933809
238	0xbd7e9556	-0.062154137
239	0xbd68190e	-0.05666452
240	0xbd29c4d5	-0.04144748
241	0x3d96b943	0.073595546
242	0xbd5c7543	-0.053822767
243	0x3d89c9b3	0.06727924
244	0xbc27e024	-0.01024631
245	0x3d648572	0.055791326
246	0xbdbc183c	-0.0918431
247	0xbd60a994	-0.054849222
248	0xbd186599	-0.037206266
249	0xbc999f41	-0.018752696
250	0xbc4d27e7	-0.0125217205
251	0xbd058ae3	-0.032603156
252	0x3d345857	0.04402956
253	0xbb368971	-0.0027852918
254	0x3d133e80	0.035948277
255	0xbd98deec	-0.07464394

feature_layer.2.bias f4 [128]
0	0xbd4fb142	-0.050706156
1	0xbd547561	-0.051869754
2	0x3dea2238	0.11432308
3	0xbbee58d1	-0.0072737713
4	0xbd9d7873	-0.076889895
5	0x3c2fbe62	0.010726543
6	0xbd75db45	-0.060023565
7	0xbceaa4ff	-0.02864313
8	0x3dd54b74	0.10414782
9	0x3da3966e	0.079876766
10	0xbca524e7	-0.020159198
11	0xbd9c2b81	-0.07625485
12	0x3c8aac0d	0.016927743
13	0xbd417b78	-0.04723689
14	0xbd87c391	-0.06629098
15	0xbd7a0b80	-0.061046124
16	0xbd96cad1	-0.07362903
17	0x3d78d412	0.06074912
18	0x3d41de6d	0.047331262
19	0xbdb68530	-0.08912122
20	0x3e143ddd	0.14476724
21	0x3d0dcfd7	0.03462204
22	0xbd7da1f1	-0.061922017
23	0x3da56f9a	0.08077927
24	0x3d896120	0.06707978
25	0x3ddeb514	0.10874382
26	0xbd40e402	-0.047092445
27	0x3d9e7d21	0.0773871
28	0xbd26f097	-0.040756788
29	0x3d3759fd	0.044763554
30	0x3d817055	0.06320254
31	0xbd564d7f	-0.05232
32	0xbe2314fb	-0.15925972
33	0xbdbf0b3d	-0.093283154
34	0xbdca2abb	-0.098714314
35	0x3d290f78	0.041274518
36	0xbd3d8de0	-0.04627788
37	0x3da86a2b	0.08223375
38	0x3d787bce	0.060664944
39	0x3db55bcf	0.08855402
40	0xbda43619	-0.08018131
41	0xbd66a41c	-0.05630885
42	0x3e0ab8ed	0.13547106
43	0xbe01c498	-0.12672651
44	0x3d86fc3e	0.0659108
45	0xbc7a788e	-0.015287532
46	0xbdbe183c	-0.09281966
47	0x3d272b41	0.040812735
48	0xb8bf534f	-9.123107e-05
49	0x3dc6d749	0.09709031
50	0x3d4bf66e	0.04979556
51	0x3d878f8f	0.066191785
52	0x3d920e67	0.07131653
53	0xbe4048fa	-0.18777838
54	0x3de36c1d	0.11104605
55	0x3e00484c	0.12527579
56	0x3d5d40a5	0.054016728
57	0xbd83feaa	-0.06445058
58	0x3e0f0f69	0.13970722
59	0x3d3b4e94	0.045729235
60	0xbd6c4564	-0.057683364
61	0xbd203293	-0.03911073
62	0xbd6c8e0a	-0.057752647
63	0x3dbe39f6	0.09288399
64	0xbdb2ec0b	-0.08736428
65	0xbdb6ab7f	-0.08919429
66	0xbdd305d2	-0.103038445
67	0xbab890bc	-0.001408122
68	0x3dc8f84b	0.09812983
69	0xbcb34daf	-0.021887628
70	0xbe2e4df8	-0.1702193
71	0x3d94e5ab	0.07270368
72	0x3d5aba4a	0.053400315
73	0xbdb2ae6d	-0.08724675
74	0x3d12c987	0.035836723
75	0x3de9e472	0.114205256
76	0xbdcae30f	-0.09906589
77	0x3d904af2	0.07045545
78	0xbc217d94	-0.0098566
79	0x3e1c3585	0.15254791
80	0xbdd120aa	-0.10211308
81	0xbe424001	-0.18969728
82	0xbdf08228	-0.11743575
83	0x3dd346b5	0.10316221
84	0xbd88157d	-0.066447236
85	0x3c69415c	0.014236774
86	0x3de92236	0.11383478
87	0x3d780321	0.06054986
88	0x3d93b0bc	0.07211444
89	0xbc9a2986	-0.018818628
90	0x3dbaed28	0.09127265
91	0x3e099015	0.13433869
92	0xbd256c5c	-0.040386543
93	0xbc14caa5	-0.009081517
94	0x3b3b1bb6	0.0028550453
95	0xbd85ec83	-0.06539252
96	0x3ce183b2	0.027528618
97	0xbda84cf2	-0.08217801
98	0x3dce7432	0.10080756
99	0x3dd8baf3	0.10582533
100	0x3bb412bb	0.005495397
101	0xbdd01032	-0.10159339
102	0x3e17fc43	0.14842324
103	0x3ceb3e37	0.02871619
104	0x3da46444	0.08026937
105	0xbda4f13e	-0.08053826
106	0x3d38a5de	0.04508006
107	0x3d98c894	0.07460132
108	0xbda4b09e	-0.080414996
109	0x3d86c445	0.06580404
110	0xbdb040dc	-0.08606121
111	0x3e101592	0.14070728
112	0x3cbccbad	0.023046339
113	0xbcf1f80b	-0.029537221
114	0xbe46ffd2	-0.19433525
115	0xbdbf1ae7	-0.09331303
116	0x3c2ebda2	0.010665329
117	0x3ca97898	0.020687386
118	0x3d47afff	0.048751827
119	0x3ca3ad0b	0.019979974
120	0xbd64364e	-0.05571585
121	0xbdc58289	-0.09644038
122	0xbe0b8f54	-0.13628894
123	0xbd007dbb	-0.031369906
124	0xbab44e0c	-0.001375617
125	0x3daffa2b	0.08592638
126	0xbd4931b7	-0.049119677
127	0x3e4ceacb	0.20011441

value_layer.0.weight f4 [64, 128]
0	0x3d25bff5	0.040466268
1	0xbd146f7c	-0.036239132
2	0xbce82ee8	-0.02834268
3	0xbda7be40	-0.08190584
4	0xbdacab5c	-0.08431122
5	0x3d113ed1	0.035460297
6	0xbac4bb03	-0.0015009347
7	0x3d3bb885	0.04583027
8	0xbca607e5	-0.020267436
9	0xbb52cf0c	-0.0032166867
10	0xbe00730a	-0.12543884
11	0x3c897f33	0.016784286
12	0xbd31b756	-0.043387733
13	0xbd8bf6dc	-0.06834194
14	0x3d4ab341	0.049487356
15	0x3d8a4323	0.067510866
16	0x3d8ee524	0.06977299
17	0xbe5357c3	-0.20638947
18	0xbdff3e7a	-0.12463088
19	0xbe02fb9c	-0.12791294
20	0xbc197386	-0.009365922
21	0xbe2ed5e1	-0.17073776
22	0x3defac3a	0.117027715
23	0xbb3214dd	-0.002717308
24	0x3d58c605	0.05292322
25	0xbe8d5170	-0.27601194
26	0xbc1179ab	-0.008879106
27	0xbdac9fb6	-0.084289
28	0xbd7b6142	-0.06137205
29	0xbd437639	-0.047720168
30	0xb9946d83	-0.00028310352
31	0xbdd1aa9e	-0.10237621
32	0xbec66e28	-0.38755918
33	0xbd6b1057	-0.05738863
34	0x3d7a7b52	0.061152764
35	0xbe5e57f9	-0.21713246
36	0x3c44d4d6	0.012013635
37	0x3cf217b1	0.029552313
38	0xbcc845f8	-0.024447426
39	0xba15c66a	-0.0005713465
40	0xbd73e5df	-0.059545394
41	0xbdacca25	-0.084369935
42	0xbe5f7cf9	-0.21825017
43	0xbdaa3bce	-0.08312188
44	0xbe1e1882	-0.15439036
45	0x3d343750	0.043998063
46	0x3cfb427f	0.030671356
47	0xbd6047dd	-0.054756034
48	0xbd08e74b	-0.033423703
49	0xbe327389	-0.17426886
50	0xbe1b70cf	-0.15179752
51	0xbe1bd5c6	-0.15218267
52	0x3dafad67	0.08577996
53	0x3db3f527	0.087869935
54	0xbd8dfea1	-0.06933332
55	0xbe1ef49e	-0.15523002
56	0xbda2ac6d	-0.07943044
57	0xbd5dbf8d	-0.054137755
58	0xbd0bd9e4	-0.034143344
59	0x3d8ecd66	0.069727704
60	0x3d71d3d8	0.05903992
61	0xbad006de	-0.0015871187
62	0x3d4c0a61	0.049814586
63	0x3cc3bf0a	0.023894805
64	0x3ccabf27	0.024749352
65	0x3e42a66c	0.19008797
66	0xbce439e3	-0.027859634
67	0x3da3a264	0.07989958
68	0xbcd5acac	-0.026083313
69	0xbd2f982b	-0.042869728
70	0xbe6dd0fb	-0.23224251
71	0xbdada0ed	-0.0847796
72	0xbc8afba6	-0.016965698
73	0xbd14f8f3	-0.03637023
74	0x3d6521b8	0.05594036
75	0xbd85d1ab	-0.065341316
76	0x3d248161	0.040162448
77	0x3cea12d6	0.028573435
78	0xbca3797e	-0.019955393
79	0x3db293e2	0.08719613
80	0xbc002a3b	-0.0078225685
81	0x3d20809b	0.039185148
82	0xbc86f00f	-0.01647189
83	0xbbd4dfb3	-0.0064963936
84	0x3d37e604	0.044897094
85	0xbeac26f7	-0.33623478
86	0xbd56f450	-0.05247909
87	0x3d67f349	0.0566285
88	0x3d16cd4e	0.036816888
89	0x3cdaa478	0.026689753
90	0xbdf5f836	-0.12010233
91	0xbd7e6146	-0.062104486
92	0x3c54b053	0.012981492
93	0xbe2fa8a7	-0.1715418
94	0xbe947e7d	-0.29002753
95	0xbcc3f0bb	-0.0239185
96	0xbccd05c4	-0.025027163
97	0xbdaea855	-0.085282005
98	0xbe15e55c	-0.14638275
99	0xbe9658f6	-0.29364747
100	0xbd9def38	-0.07711643
101	0xbe3ffd93	-0.18749075
102	0xbe64b827	-0.22335874
103	0xbd13ecff	-0.03611469
104	0xbe73ac86	-0.23796281
105	0x3d12899b	0.035775762
106	0xbd304efe	-0.043044083
107	0xbd809afd	-0.06279562
108	0xbd0b7684	-0.034048572
109	0xbd9a202b	-0.07525667
110	0xbd847bff	-0.06468963
111	0x3cad19e8	0.021130517
112	0x3da39d24	0.079889566
113	0x3d07c2f9	0.033144925
114	0x3c8a70df	0.016899524
115	0xbaaada83	-0.0013035092
116	0xbd845599	-0.06461639
117	0xbdf588ea	-0.11989005
118	0xbd150cd1	-0.036389176
119	0xbd57a959	-0.052651737
120	0xbd51e077	-0.051239457
121	0xbda4880b	-0.08033761
122	0xbe9464cc	-0.28983152
123	0x3d8223c6	0.063544795
124	0x3d0f8949	0.035043035
125	0xbc700b0a	-0.014651069
126	0xbeb7c11b	-0.35889515
127	0xbdf071b3	-0.117404364
128	0x3d1a3c99	0.037655447
129	0x3d3b61c3	0.04574753
130	0xbce25541	-0.027628543
131	0x3e01f30c	0.12690371
132	0xbd27e939	-0.040993903
133	0xbddeb8e2	-0.10875107
134	0xbc3b7ace	-0.011442853
135	0xbee32fa6	-0.4437229
136	0xbb8754e1	-0.0041299914
137	0x3de9449d	0.1139004
138	0xbc2c5d41	-0.01052028
139	0x3df1aa17	0.1180002
140	0x3d98df71	0.07464493
141	0xbc0e74ab	-0.008694808
142	0x3c507e0b	0.0127253635
143	0x3c1fd26c	0.009754758
144	0x3c076a7e	0.008265136
145	0xbe80c7c5	-0.25152412
146	0x3e717e75	0.23583396
147	0x3c3bdaa7	0.011465705
148	0x3eae8233	0.3408371
149	0x3cc171a7	0.023613764
150	0x3ca79f86	0.020461809
151	0x3c6bf340	0.014401257
152	0x3d7c4df5	0.061597783
153	0xbeeef6c1	-0.46672633
154	0x3d8f40dc	0.06994793
155	0x3dfce61a	0.12348576
156	0xbd075e12	-0.033048697
157	0xbe109e68	-0.14122927
158	0xbcba9944	-0.02277816
159	0x3df4c83d	0.11952255
160	0xbe559d20	-0.2086072
161	0xbd16a0f3	-0.036774587
162	0x3cdde7c0	0.027088046
163	0xbca46f4e	-0.020072605
164	0xbe27a89b	-0.16372912
165	0xbe129030	-0.14312816
166	0x3d902bec	0.070396274
167	0x3e12a846	0.14322004
168	0x3d948775	0.07252399
169	0x3db9b9dd	0.09068654
170	0x3cda583d	0.026653403
171	0x3c97eea7	0.018546415
172	0x3c0178ce	0.007902337
173	0x3c809e7e	0.015700575
174	0x3e11bbdd	0.1423182
175	0x3d78d7d6	0.060752712
176	0xbd1aa027	-0.03775039
177	0xbbbd4356	-0.0057758493
178	0xbdd19c40	-0.102348804
179	0xbda6f051	-0.081513055
180	0x3e119a80	0.14219093
181	0xbd1b3321	-0.037890557
182	0x3d64002e	0.055664234
183	0x3d80b98a	0.06285389
184	0x3da32c52	0.07967438
185	0x3e22744b	0.15864675
186	0x3d5f5cbc	0.054531798
187	0xbcc6a644	-0.024249204
188	0xbc92746e	-0.017877784
189	0x3e612e52	0.21990326
190	0x3dea74e2	0.11448075
191	0xbb375b57	-0.0027978027
192	0x3cd67c9e	0.026182469
193	0x3effb5de	0.4994344
194	0x3db85e3a	0.09002347
195	0x3d46397e	0.048394673
196	0xbe212afc	-0.15739053
197	0xbd291f87	-0.041289832
198	0x3e82660b	0.25468478
199	0x3c29d077	0.010364643
200	0xbd2bb7ba	-0.041923262
201	0x3d02f8b7	0.031975474
202	0x3eab4aaf	0.33455417
203	0x3d9ba8eb	0.07600578
204	0x3ded962a	0.11600907
205	0xbe34356e	-0.17598507
206	0xbe05333f	-0.1300783
207	0xbdc89916	-0.09794824
208	0x3b8867c1	0.004162759
209	0x3eabd549	0.3356116
210	0x3e154c34	0.1457985
211	0xbdeb8b14	-0.115011364
212	0x3df3bae1	0.11900879
213	0xbe488dd9	-0.1958536
214	0x3c8e7187	0.017388118
215	0xbdaab180	-0.08334637
216	0xbc665497	-0.014058254
217	0x3eafa6c9	0.34306934
218	0x3ce7068e	0.028201368
219	0x3d8319ba	0.06401391
220	0x3d691f97	0.056914892
221	0xbd967b82	-0.07347776
222	0xbe28fcdf	-0.16502713
223	0x3d5bb6cd	0.05364113
224	0x3e62fa32	0.22165754
225	0x3d419ceb	0.04726879
226	0x3c71b180	0.014751792
227	0x3c815130	0.015785784
228	0xbd66c9bd	-0.056344736
229	0x3e9fb878	0.31195426
230	0x3dbf3413	0.09336104
231	0xbd1ace54	-0.037794426
232	0x3dd32af4	0.10310927
233	0x3d00ef97	0.03147849
234	0x3e135861	0.14389183
235	0x3ddfef65	0.10934333
236	0xbd721160	-0.0590986
237	0x3e163d40	0.14671803
238	0xbd7b8afa	-0.061411835
239	0x3d10b16b	0.03532545
240	0x3e0fc00f	0.14038108
241	0xbcf0e65f	-0.029406724
242	0x3e031b00	0.12803268
243	0xbe1e9bd6	-0.15489134
244	0xbd59044e	-0.05298262
245	0x3d8ec769	0.06971628
246	0xbcdf0690	-0.027224809
247	0x3deedc13	0.116630696
248	0xbc50b860	-0.012739271
249	0x3bc18d47	0.005906734
250	0x3e0b8198	0.13623655
251	0xbd6387b7	-0.05554935
252	0x3d6ad5b9	0.057332728
253	0xbcf4f760	-0.029903114
254	0x3e10f297	0.1415504
255	0x3e0937a2	0.13400128

value_layer.0.bias f4 [64]
0	0xbdc811f6	-0.09769051
1	0x3c94a506	0.018145096
2	0x3d8dc1ff	0.069217674
3	0x3e0b27cc	0.135894
4	0xbc0191ff	-0.007908343
5	0x3d25af22	0.040450223
6	0x3dbe1ad9	0.092824645
7	0x3deb5820	0.11491418
8	0xbc841306	-0.016122352
9	0x3cc44e77	0.023963196
10	0x3daf298a	0.08552845
11	0xbd9f7730	-0.07786405
12	0xbda9a3ce	-0.082831964
13	0x3e21378d	0.15743847
14	0xbdd5f0cb	-0.10446318
15	0x3e194c0d	0.14970417
16	0xbe239462	-0.15974572
17	0xbc4b91da	-0.01242491
18	0x3e00ebed	0.12589999
19	0xbd8347ae	-0.06410156
20	0x3da6ed03	0.08150675
21	0x3dc288c2	0.09498741
22	0x3de8c068	0.113648236
23	0xbdfbd460	-0.12296367
24	0x3dedca2e	0.11610828
25	0xbd518b82	-0.051158436
26	0xbd983413	-0.07431807
27	0xbdddadc5	-0.108241595
28	0xbce56cbf	-0.028005956
29	0xbd0f713f	-0.03502011
30	0x3d0ddc1c	0.03463374
31	0x3d43ba7e	0.047785275
32	0xbc4b7616	-0.012418291
33	0xbd0d22a7	-0.034456875
34	0x3ddd91a7	0.108187966
35	0xbca68eee	-0.020331826
36	0x3dbe918f	0.09305107
37	0x3d97ad60	0.074061155
38	0x3ce4024d	0.027833128
39	0x3ddc9324	0.10770252
40	0x3e048e80	0.12944984
41	0x3e04c009	0.1296388
42	0x3d755bfa	0.05990217
43	0x3ddb69a4	0.10713509
44	0xbd899324	-0.06717518
45	0xbde7218b	-0.11285695
46	0x3dbfbb92	0.09361948
47	0xbdbfa394	-0.09357372
48	0x3cb74c49	0.022375243
49	0x3d4a0091	0.049316946
50	0x3dba14d2	0.090860024
51	0xbdec9e66	-0.115536496
52	0x3e012236	0.12610707
53	0xbdef6455	-0.11689059
54	0xbd228180	-0.039674282
55	0x3e0858a0	0.13315058
56	0xbdccecff	-0.10006141
57	0xbd8ec7e2	-0.06971718
58	0xbda04885	-0.07826332
59	0x3bd39056	0.006456415
60	0xbd81af88	-0.06332308
61	0x3e2b695a	0.16739407
62	0xbe69596b	-0.22788016
63	0xbe4ffc2a	-0.20311037

value_layer.2.weight f4 [1, 64]
0	0xbe2fb883	-0.1716023
1	0xbe76a5b6	-0.24086651
2	0x3f55396b	0.8329074
3	0x3f4c60d4	0.7983525
4	0xbe018e05	-0.12651832
5	0xbda49570	-0.080363154
6	0x3f55ee1a	0.8356644
7	0x3f10e65a	0.5660149
8	0x3dc62e95	0.096768536
9	0xbd8a3bfc	-0.06749722
10	0xbeb5e831	-0.3552871
11	0x3d7eaa0f	0.0621739
12	0xbe6e7b7e	-0.23289296
13	0x3f5c42e3	0.8603956
14	0xbbec105a	-0.0072040977
15	0x3f084826	0.5323509
16	0xbe3cadbe	-0.18425652
17	0x3ec24125	0.37940326
18	0x3f624f0e	0.8840188
19	0xbd498c58	-0.049206108
20	0x3f254c2e	0.64569366
21	0x3f0f9370	0.56084347
22	0xbedeeeee	-0.43541664
23	0xbe711184	-0.23541838
24	0x3f79a662	0.97519505
25	0xbedcb08f	-0.43103454
26	0x3d3d23ad	0.0461766
27	0xbe8a86cc	-0.27055967
28	0x3c2637bf	0.010145127
29	0xbe2b1dd8	-0.16710603
30	0x3f433d09	0.7626501
31	0xbe4a3a92	-0.19748905
32	0xbe251cbf	-0.16124247
33	0xbf024337	-0.5088381
34	0x3f2b877d	0.67003614
35	0x3d4d1f77	0.050078835
36	0x3df9260d	0.12165461
37	0x3f3e193d	0.7425726
38	0x3f7ba4cc	0.98298335
39	0xbef20836	-0.4727189
40	0x3f45517b	0.77077454
41	0x3e52f792	0.20602253
42	0xbe76954b	-0.24080388
43	0x3f14efa3	0.58178157
44	0xbec17be9	-0.37789848
45	0xbea51ac0	-0.3224697
46	0x3f35c21d	0.7099932
47	0x3dce4be7	0.10073071
48	0xbe33614e	-0.17517588
49	0x3f57cb47	0.8429455
50	0x3f5c62f4	0.8608849
51	0xbe86a1ed	-0.26295415
52	0x3f6442d4	0.8916447
53	0x3d684aa0	0.056711793
54	0xbe663e66	-0.2248474
55	0x3f7ff65c	0.9998529
56	0x3d6e7871	0.05822033
57	0xbd8bcf2d	-0.06826625
58	0x3d22e674	0.03977056
59	0x3e9811c8	0.29701066
60	0x3d19e4f0	0.037571847
61	0x3f86083c	1.0471263
62	0xbf034ea9	-0.512919
63	0xbee8c35c	-0.45461547

advantage_layer.0.weight f4 [64, 128]
0	0xbd958c6c	-0.07302174
1	0x3d5b9d05	0.053616542
2	0x3d600122	0.05468858
3	0xbb85f2a2	-0.004087762
4	0x3d45a8c1	0.04825664
5	0xbd57d3f0	-0.052692354
6	0xbc911e87	-0.017714752
7	0xbdaaf970	-0.08348358
8	0xbda1dc44	-0.079033405
9	0xbd996ea5	-0.07491807
10	0xbdb25400	-0.08707428
11	0x3c3b45b0	0.011430189
12	0x3d38f7bf	0.045158144
13	0xbd833c6e	-0.064080104
14	0x3db45352	0.088049546
15	0x3b3a9a94	0.0028473483
16	0xbd79da6d	-0.060999323
17	0xbd8d4c12	-0.06899275
18	0x3db3b197	0.08774107
19	0xbd7e25dd	-0.062047828
20	0xbcb55d84	-0.022139318
21	0xbd6c7c49	-0.057735715
22	0xbb760bcf	-0.003754366
23	0x3cb35f5d	0.021896059
24	0xbd85d105	-0.06534008
25	0xbd3b3791	-0.04570729
26	0xbd93385a	-0.071884826
27	0xbd261d03	-0.04055501
28	0x3cb807a1	0.022464575
29	0xbdac4ef8	-0.084134996
30	0x3d4dca4d	0.050241757
31	0x3c7a2be1	0.015269251
32	0xbbe5725e	-0.007002159
33	0xbd7f4e47	-0.06233051
34	0x3d02260d	0.03177457
35	0xbcf410c4	-0.02979315
36	0xbd208d12	-0.039197035
37	0xbbc91a09	-0.006137137
38	0x3d40a92d	0.04703634
39	0xbd85f664	-0.06541136
40	0x3d9d3354	0.07675806
41	0x3c816597	0.015795512
42	0x3d93380b	0.07188424
43	0x3b1ffdc6	0.0024412735
44	0x3a9dded1	0.0012044554
45	0xbbbf3770	-0.005835466
46	0x3cd3f52f	0.025873749
47	0x3d87f9c8	0.06639439
48	0xbd8bc352	-0.06824364
49	0x3d5011ac	0.050798103
50	0xbcb68641	-0.022280814
51	0xbddd85af	-0.10816514
52	0xbd8ac302	-0.06775476
53	0x3c653fbc	0.013992246
54	0xbcf7c3c8	-0.030244723
55	0x3c3263ee	0.010888083
56	0x3d897120	0.0671103
57	0xba134ad8	-0.00056187576
58	0xbd16723d	-0.03673004
59	0x3d9b06c4	0.0756965
60	0x3d60b675	0.054861505
61	0xbd36ac39	-0.044597838
62	0xbd108c64	-0.035290137
63	0xbdb592f6	-0.08865921
64	0x3d221751	0.039573018
65	0x3ccb9f53	0.024856245
66	0x3d6f33cd	0.05839901
67	0xbdb90b70	-0.09035385
68	0x3d7e6dc6	0.062116407
69	0xbb960b23	-0.0045789643
70	0xbdbfed8d	-0.09371481
71	0x3d71d12a	0.059037365
72	0xbdc1f7cf	-0.09471094
73	0xbce2dd55	-0.02769343
74	0xbd1c6298	-0.038179964
75	0xbd13f557	-0.036122646
76	0x3cca0e5b	0.024665048
77	0x3d0c732c	0.034289524
78	0xbda75668	-0.081707776
79	0xbd4a7779	-0.049430344
80	0xbc98b47b	-0.018640747
81	0x3d95ea05	0.07320026
82	0x3da6dff7	0.08148187
83	0xbd952f52	-0.07284416
84	0x3b9e803f	0.0048370655
85	0x3da7e41c	0.08197805
86	0xbbbbf0af	-0.005735479
87	0x3d2dd0e5	0.042435545
88	0x3d36b3a7	0.044604924
89	0xbd17e2ff	-0.037081715
90	0x3b209fe0	0.0024509355
91	0xbcb08662	-0.021548454
92	0x3c75429b	0.014969493
93	0xbdb959df	-0.09050345
94	0x3d83af98	0.06429976
95	0xbd08dd5f	-0.03341424
96	0xbbafa916	-0.005360733
97	0xbd421ed8	-0.047392696
98	0xbdb13653	-0.0865294
99	0xbb45e95a	-0.0030198903
100	0x3cb9d1d7	0.022683067
101	0xbcc2af12	-0.02376512
102	0xbc430a79	-0.011904352
103	0xbdb16f96	-0.086638615
104	0xbd74d0bb	-0.059769373
105	0x3b07dfe3	0.0020732812
106	0x3d4b9e65	0.049711604
107	0x3d43b7c4	0.047782674
108	0xbd67be55	-0.056578
109	0xbd86130d	-0.065466024
110	0xbd96682d	-0.07344089
111	0x3c8f2308	0.017472759
112	0xbc77c096	-0.0151216
113	0x3d8b6882	0.06807043
114	0xbd6ff9c4	-0.058587804
115	0x3d322474	0.043491796
116	0xbd83f0a9	-0.06442387
117	0x3cab50ba	0.020912517
118	0xbd2b2190	-0.041780055
119	0xbdce2764	-0.10066107
120	0x3d7cf6dd	0.061758865
121	0xbda427d3	-0.08015408
122	0xbda8b664	-0.08237913
123	0xbd2c986a	-0.04213754
124	0xbd6af1c9	-0.05735949
125	0xbd9f6240	-0.077824116
126	0xbdc992f4	-0.09842482
127	0xbd7c775f	-0.06163728
128	0xbd191808	-0.037376434
129	0x3d47c566	0.04877224
130	0x3ddff082	0.10934545
131	0x3e936b55	0.28792825
132	0xbcffff49	-0.03124966
133	0x3e520327	0.20509015
134	0xbd302aed	-0.043009687
135	0xbde4cf02	-0.11172296
136	0xbdb54b1a	-0.08852215
137	0x3e048e8b	0.12945001
138	0x3e88edc0	0.2674389
139	0xbe064e97	-0.13115917
140	0xbca3b4dd	-0.019983703
141	0xbd147b7c	-0.036250576
142	0x3d24b7c1	0.040214304
143	0xbe4093fb	-0.1880645
144	0xbd4fb410	-0.05070883
145	0x3d350da5	0.044202466
146	0xbe025797	-0.12728725
147	0x3d29996c	0.04140608
148	0xbe8c9df7	-0.27464268
149	0x3dadc916	0.0848562
150	0x3d5633cb	0.052295487
151	0x3c143175	0.009044995
152	0xbd8ebeb2	-0.06969966
153	0x3cd69c56	0.026197594
154	0xbb9bbfd7	-0.0047530937
155	0xbdbc2260	-0.09186244
156	0x3c50a33a	0.012734229
157	0x3dc6895f	0.0969417
158	0xbdaf1bad	-0.085502006
159	0x3e84e495	0.25955644
160	0xbd889e82	-0.06670858
161	0x3d8c87db	0.0686185
162	0xbe466b21	-0.19376804
163	0x3cb46217	0.02201943
164	0x3e6933f2	0.22773722
165	0x3cc052d2	0.023476992
166	0x3c8c8782	0.017154459
167	0xbd215ec7	-0.039397027
168	0x3cb5d0a5	0.022194216
169	0x3cf365e7	0.029711677
170	0xbca401c8	-0.02002038
171	0x3de7170e	0.11283694
172	0x3dff752f	0.12473523
173	0xbc3bb333	-0.011456299
174	0x3cf166ec	0.029468022
175	0xbd95b540	-0.07309961
176	0x3e7bbea3	0.24584441
177	0x3dac7ce0	0.084222555
178	0xbdc48859	-0.09596319
179	0x3d6fa197	0.058503713
180	0xbd3693a8	-0.04457441
181	0xbd6d0864	-0.05786933
182	0xbc8d3899	-0.017238902
183	0xbcda859b	-0.026675036
184	0x3d46241f	0.04837429
185	0xbe5e5b49	-0.2171451
186	0x3d99c2f9	0.07507891
187	0x3c1d4df4	0.009601105
188	0x3c771ca7	0.015082515
189	0xbed11ee7	-0.4084389
190	0xbea49277	-0.32142994
191	0xbb496f93	-0.003073667
192	0x3dada162	0.08478047
193	0xbe0659ff	-0.13120268
194	0x3dba6821	0.09101892
195	0xbd8ab17d	-0.067721345
196	0x3de3547e	0.111001
197	0x3c8ae6c7	0.016955746
198	0x3e1ef6d5	0.15523846
199	0xbc99f738	-0.01879464
200	0x3c905cfb	0.017622462
201	0x3d551b45	0.05202796
202	0x3eb70dcf	0.35752723
203	0xbc81b996	-0.015835565
204	0xbec5a5b8	-0.38602996
205	0x3db65638	0.08903164
206	0x3e17600c	0.14782733
207	0x3dd121fe	0.102115616
208	0x3d9aea59	0.075642295
209	0x3bc7beaf	0.0060957293
210	0xbefdde1e	-0.49583524
211	0xbda865a2	-0.0822251
212	0x3d490cba	0.049084403
213	0x3dfc00c2	0.12304832
214	0x3d62d212	0.05537612
215	0xbd4272b4	-0.04747267
216	0xbc8b6dd6	-0.017020147
217	0xbede665b	-0.43437466
218	0xbd378a86	-0.04480984
219	0x3dac38ec	0.084092945
220	0xbd7926cf	-0.060828026
221	0x3e50e303	0.20399098
222	0x3e183481	0.14863779
223	0x3d0b693d	0.03403591
224	0x3e8a7c3f	0.27047917
225	0x3b2a06a2	0.0025943895
226	0x3c5f91b3	0.013645577
227	0x3d14f0b3	0.03636236
228	0x3d1c56bf	0.038168665
229	0xbe8ab8cd	-0.27094117
230	0x3e1d069a	0.1533455
231	0xbcb4265f	-0.021990953
232	0x3dfe0f85	0.12405304
233	0xbcee0353	-0.02905432
234	0x3ef8bec4	0.48583043
235	0x3e183f73	0.14867954
236	0xb8cbea0b	-9.723388e-05
237	0xbd45b6f7	-0.048270192
238	0xbc20360b	-0.00977851
239	0x3d6f909b	0.058487516
240	0xbc3b38ce	-0.0114271175
241	0xbda9432b	-0.082647644
242	0xbda2be39	-0.07946438
243	0x3de8ad07	0.11361127
244	0xbd56d5af	-0.05244988
245	0x3f165d34	0.58735967
246	0x3dba933d	0.09110115
247	0x3d5bffff	0.053710934
248	0x3ca6dc1c	0.020368628
249	0xbee10280	-0.4394722
250	0xbe9d0003	-0.3066407
251	0x3d209bdb	0.039211135
252	0x3c86460e	0.016390827
253	0xbc820668	-0.015872195
254	0xbed100ee	-0.40821022
255	0x3d90e7dc	0.07075474

advantage_layer.0.bias f4 [64]
0	0xbd8f53b6	-0.069983885
1	0x3de8cadb	0.113668166
2	0xbd131b16	-0.035914503
3	0xbc7cfe14	-0.015441436
4	0x3db471ec	0.088107914
5	0x3d18f48d	0.037342597
6	0xbda317ba	-0.0796351
7	0xbd616489	-0.05502752
8	0x3d8a931c	0.0676634
9	0xbd5064fa	-0.05087755
10	0xbddf492a	-0.10902627
11	0x3b114014	0.0022163438
12	0x3e18f30f	0.1493647
13	0xbd833d7c	-0.064082116
14	0xbcd43686	-0.025904905
15	0x3dc2a37c	0.095038384
16	0xbd4a3afe	-0.049372666
17	0xbdd5a895	-0.10432545
18	0x3d46738f	0.04845005
19	0x3d109e95	0.035307486
20	0xbc66e0ab	-0.014091651
21	0xbc38391a	-0.011244083
22	0x3d922ba3	0.07137229
23	0xbc9d2bc0	-0.0191859
24	0x3c523290	0.012829438
25	0x3dfeb847	0.12437492
26	0xbd7f27a7	-0.062293675
27	0x3da1fd9f	0.079097025
28	0x3cbd3f1e	0.023101386
29	0x3db6b0e1	0.08920456
30	0x3cb5272c	0.022113405
31	0x3de720aa	0.11285527
32	0xbc0d2451	-0.008614616
33	0xbd5e0a6f	-0.05420917
34	0xbcd2646a	-0.025682647
35	0x3b27ad15	0.0025585343
36	0x3cd782d4	0.0263075
37	0xbcf27b7b	-0.029599896
38	0x3c4a53e5	0.012349104
39	0xbd8c4a69	-0.0685013
40	0x3e06d157	0.13165794
41	0x3d61400b	0.054992717
42	0x3dd3f690	0.103497624
43	0xbc395586	-0.011311894
44	0x3d90e82d	0.07075534
45	0x3cdbdef0	0.026839703
46	0x3db227aa	0.086989716
47	0x3d246376	0.040133916
48	0x3d08317d	0.03325032
49	0xbd37f6b6	-0.044913016
50	0xbdeb99b2	-0.115039244
51	0x3d58a4d2	0.05289156
52	0x3d16a4af	0.03677815
53	0x3bfa3f96	0.0076369746
54	0x3ccd833b	0.02508699
55	0xbbd20e7e	-0.006410419
56	0xbdbb3407	-0.09140783
57	0x3da9f5b3	0.082988165
58	0x3cf36ac9	0.029714005
59	0xbca3814a	-0.01995911
60	0x3d7d1dc7	0.061795976
61	0x3db548a4	0.08851746
62	0x3d801def	0.062557094
63	0x3d0f342f	0.034961876

advantage_layer.2.weight f4 [2, 64]
0	0xbbe9d823	-0.007136361
1	0x3e131479	0.14363278
2	0x3dd1126c	0.10208592
3	0xbdbb3e2f	-0.0914272
4	0x3ddccc8d	0.107812025
5	0xbf03f063	-0.51538676
6	0x3dbc7016	0.09201066
7	0xbf2f1b10	-0.6840067
8	0x3e454aaa	0.19266763
9	0x3cc5b6a3	0.02413494
10	0xbd8cb3c3	-0.06870224
11	0xbe32c891	-0.17459323
12	0xbeb9a879	-0.36261347
13	0x3ed5a6cf	0.41728827
14	0x3e49fcda	0.19725361
15	0xbe74492f	-0.23856042
16	0xbef34ada	-0.47518045
17	0x3e7f9272	0.24958208
18	0x3e328430	0.17433238
19	0xbdac2c30	-0.084068656
20	0x3d1498b6	0.03627845
21	0xbf29bbcf	-0.663022
22	0x3e33b9aa	0.17551294
23	0x3e28501f	0.16436814
24	0xbe57d3d3	-0.21076898
25	0x3e81c5ef	0.25346324
26	0xbf09b1d8	-0.53786993
27	0x3e1cf22f	0.1532676
28	0xbe810d7f	-0.2520561
29	0x3e1a2a80	0.15055275
30	0x3d998bae	0.07497345
31	0x3d22eb11	0.039774958
32	0xbdf7fdd8	-0.12108964
33	0x3f0d05dc	0.55087066
34	0x3d7fc7fb	0.062446576
35	0x3db0c0a4	0.08630493
36	0xbd4ca13d	-0.049958456
37	0xbe906221	-0.28199866
38	0xbc9641e6	-0.01834197
39	0xbcd68a71	-0.02618906
40	0xbdf2c0ff	-0.11853217
41	0xbc7a1cfd	-0.0152657
42	0xbe2967ab	-0.16543452
43	0x3e2980f7	0.16553102
44	0x3ef777ca	0.4833358
45	0x3e401f66	0.18761978
46	0x3e585921	0.2112775
47	0x3eac950e	0.3370747
48	0x3e3681e2	0.17822984
49	0x3f03bf28	0.51463556
50	0x3e66abe5	0.2252651
51	0x3d5b87a3	0.05359615
52	0xbf4455f3	-0.7669365
53	0x3d8d1f3c	0.06890723
54	0xbdc402f0	-0.09570873
55	0x3dfd16f7	0.12357896
56	0x3c78d0aa	0.015186468
57	0x3d0e2d17	0.03471097
58	0x3dc83248	0.097752154
59	0x3e185094	0.14874488
60	0xbe967255	-0.29384103
61	0xbe8e45bc	-0.27787578
62	0x3f171cb8	0.59028196
63	0x3dfd9865	0.123825826
64	0xbd6b999e	-0.057519548
65	0xbe304b60	-0.17216253
66	0xbda38ac6	-0.07985453
67	0xbd149df7	-0.03628346
68	0xbe409cb4	-0.18809777
69	0x3f25534a	0.64580214
70	0xbd58742e	-0.052845173
71	0x3f2989be	0.662258
72	0xbe44bcc9	-0.19212641
73	0xbd49a999	-0.049234007
74	0x3db53f2d	0.088499404
75	0x3e0a189c	0.1348595
76	0x3e1dde1e	0.15416762
77	0xbf07b19a	-0.53005373
78	0xbe3708d7	-0.17874466
79	0x3d4ffc01	0.05077744
80	0x3ed87988	0.4228022
81	0xbecac105	-0.39600387
82	0xbe5d6615	-0.21620972
83	0x3d727a98	0.059198946
84	0x3d0e686c	0.034767553
85	0x3f386a2f	0.72037023
86	0xbdc7aa20	-0.09749246
87	0xbda6351e	-0.081156
88	0x3e3561f8	0.17713153
89	0xbe7f21e0	-0.24915266
90	0x3f376614	0.71640134
91	0xbdc1da58	-0.09465474
92	0x3e8eadcb	0.2786697
93	0xbcbe7117	-0.023247285
94	0xbe290986	-0.16507539
95	0xbe37cecb	-0.17949979
96	0x3de32741	0.110914715
97	0xbf0d3887	-0.5516438
98	0xbac0bd92	-0.0014704934
99	0xbe146e3e	-0.14495179
100	0x3dad67f2	0.084670916
101	0x3eb3de2c	0.3513044
102	0xbe33037f	-0.17481802
103	0x3d0eb55b	0.034840923
104	0x3e05b521	0.13057376
105	0x3ce5cd19	0.0280519
106	0x3d946575	0.07245914
107	0xbe596e69	-0.21233524
108	0xbf18e6f4	-0.59727407
109	0xbc543400	-0.012951851
110	0xbcc944ff	-0.024569033
111	0xbe9d7ddb	-0.30760083
112	0xbe412014	-0.18859893
113	0xbf188958	-0.5958457
114	0xbd3951ee	-0.04524415
115	0xbe4f2b78	-0.20231426
116	0x3f2c35ad	0.672694
117	0x3db663d7	0.08905762
118	0x3dc04963	0.093889974
119	0xbe744ffa	-0.23858634
120	0x3c1ac231	0.009445713
121	0xbe11faa3	-0.14255767
122	0xbdd53cad	-0.104119636
123	0xbdc9aad2	-0.098470345
124	0x3e943653	0.28947696
125	0x3e7a4ab4	0.2444256
126	0xbeebe9cb	-0.46076807
127	0xbe32cbfa	-0.17460623

advantage_layer.2.bias f4 [2]
0	0xbe0f98ec	-0.14023179
1	0x3ce4125b	0.027840784
